…
Namespace(lr=0.001, epochs=3000, batch_size=1024, num_workers=4, eval_step=50, learner='AdamW', lr_scheduler_type='linear', warmup_epochs=50, data_path='../data/Sports/item_emb.parquet', weight_decay=0.0001, dropout_prob=0.0, bn=False, loss_type='mse', kmeans_init=True, kmeans_iters=100, sk_epsilons=[0.0, 0.0, 0.003], sk_iters=50, device='cuda:0', num_emb_list=[256, 256, 256], e_dim=32, quant_loss_weight=1.0, beta=0.25, layers=[512, 256, 128, 64], save_limit=5, ckpt_dir='./ckpt/Sports')
=================================================
RQVAE(
  (encoder): MLPLayers(
    (mlp_layers): Sequential(
      (0): Dropout(p=0.0, inplace=False)
      (1): Linear(in_features=768, out_features=512, bias=True)
      (2): ReLU()
      (3): Dropout(p=0.0, inplace=False)
      (4): Linear(in_features=512, out_features=256, bias=True)
      (5): ReLU()
      (6): Dropout(p=0.0, inplace=False)
      (7): Linear(in_features=256, out_features=128, bias=True)
      (8): ReLU()
      (9): Dropout(p=0.0, inplace=False)
      (10): Linear(in_features=128, out_features=64, bias=True)
      (11): ReLU()
      (12): Dropout(p=0.0, inplace=False)
      (13): Linear(in_features=64, out_features=32, bias=True)
    )
  )
  (rq): ResidualVectorQuantizer(
    (vq_layers): ModuleList(
      (0-2): 3 x VectorQuantizer(
        (embedding): Embedding(256, 32)
      )
    )
  )
  (decoder): MLPLayers(
    (mlp_layers): Sequential(
      (0): Dropout(p=0.0, inplace=False)
      (1): Linear(in_features=32, out_features=64, bias=True)
      (2): ReLU()
      (3): Dropout(p=0.0, inplace=False)
      (4): Linear(in_features=64, out_features=128, bias=True)
      (5): ReLU()
      (6): Dropout(p=0.0, inplace=False)
      (7): Linear(in_features=128, out_features=256, bias=True)
      (8): ReLU()
      (9): Dropout(p=0.0, inplace=False)
      (10): Linear(in_features=256, out_features=512, bias=True)
      (11): ReLU()
      (12): Dropout(p=0.0, inplace=False)
      (13): Linear(in_features=512, out_features=768, bias=True)
    )
  )
)
[1;35mTrain 0[0m:   0%|                                                               | 0/18 [00:00<?, ?it/s][0m/home/media601/anaconda3/lib/python3.10/site-packages/sklearn/cluster/_kmeans.py:1416: FutureWarning: The default value of `n_init` will change from 10 to 'auto' in 1.4. Set the value of `n_init` explicitly to suppress the warning
…
