…
Namespace(batch_size=1024, beta=0.25, bn=False, ckpt_dir='./ckpt/Toys', data_path='../data/Toys/item_emb.parquet', device='cuda:0', dropout_prob=0.0, e_dim=32, epochs=3000, eval_step=50, kmeans_init=True, kmeans_iters=100, layers=[512, 256, 128, 64], learner='AdamW', loss_type='mse', lr=0.001, lr_scheduler_type='linear', num_emb_list=[256, 256, 256], num_workers=4, quant_loss_weight=1.0, save_limit=5, sk_epsilons=[0.0, 0.0, 0.003], sk_iters=50, warmup_epochs=50, weight_decay=0.0001)
=================================================
RQVAE(
  (encoder): MLPLayers(
    (mlp_layers): Sequential(
      (0): Dropout(p=0.0, inplace=False)
      (1): Linear(in_features=768, out_features=512, bias=True)
      (2): ReLU()
      (3): Dropout(p=0.0, inplace=False)
      (4): Linear(in_features=512, out_features=256, bias=True)
      (5): ReLU()
      (6): Dropout(p=0.0, inplace=False)
      (7): Linear(in_features=256, out_features=128, bias=True)
      (8): ReLU()
      (9): Dropout(p=0.0, inplace=False)
      (10): Linear(in_features=128, out_features=64, bias=True)
      (11): ReLU()
      (12): Dropout(p=0.0, inplace=False)
      (13): Linear(in_features=64, out_features=32, bias=True)
    )
  )
  (rq): ResidualVectorQuantizer(
    (vq_layers): ModuleList(
      (0): VectorQuantizer(
        (embedding): Embedding(256, 32)
      )
      (1): VectorQuantizer(
        (embedding): Embedding(256, 32)
      )
      (2): VectorQuantizer(
        (embedding): Embedding(256, 32)
      )
    )
  )
  (decoder): MLPLayers(
    (mlp_layers): Sequential(
      (0): Dropout(p=0.0, inplace=False)
      (1): Linear(in_features=32, out_features=64, bias=True)
      (2): ReLU()
      (3): Dropout(p=0.0, inplace=False)
      (4): Linear(in_features=64, out_features=128, bias=True)
      (5): ReLU()
      (6): Dropout(p=0.0, inplace=False)
      (7): Linear(in_features=128, out_features=256, bias=True)
      (8): ReLU()
      (9): Dropout(p=0.0, inplace=False)
      (10): Linear(in_features=256, out_features=512, bias=True)
      (11): ReLU()
      (12): Dropout(p=0.0, inplace=False)
      (13): Linear(in_features=512, out_features=768, bias=True)
    )
  )
)
[1;35mTrain 0[0m:   0%|                                                               | 0/12 [00:00<?, ?it/s][0m[1;35mTrain 0[0m:   8%|████▌                                                  | 1/12 [00:06<01:07,  6.16s/it][0m[1;35mTrain 0[0m:  83%|█████████████████████████████████████████████         | 10/12 [00:06<00:00,  2.20it/s][0m[1;35mTrain 0[0m: 100%|██████████████████████████████████████████████████████| 12/12 [00:06<00:00,  1.90it/s][0m
…
